light/runs/my_model/version_3/checkpoints/epoch=5-step=600.ckpt (torch, 411403 bytes, 8 tensors)

encoder.0.weight f4 [64, 784]
000000 4c d8 9f 3c e0 99 19 bc 2e 0f eb 3c 8e 8d aa 3c
       0.019512318 -0.009375066 0.028693762 0.020819452
000010 5e 7a d3 bc 53 ee b3 bb 01 73 fd 3c 9c b6 85 3c
       -0.025815185 -0.005491057 0.030938627 0.016322426
000020 4a a8 75 3a e5 2f 30 3c 98 c6 dc 3c 1c b9 8a bb
       0.00093710853 0.010753606 0.026950166 -0.0042334925
000030 5c 61 dd bc 4d a3 03 3d 4a c3 01 3c d8 ba 77 bc
       -0.027023964 0.032138158 0.007920096 -0.015120231
000040 3e 65 ef 3c 41 67 c6 bc 6e cf 8b b9 00 44 14 3c
       0.02922308 -0.024219157 -0.00026666693 0.009049416
000050 6e ac 1d 3c 15 c8 83 bc 8a 43 95 3b f5 95 87 bc
       0.00962363 -0.016086617 0.0045551704 -0.016550997
000060 58 f8 ed bc 9c 2f da bb 41 21 e4 3c 8e bc 04 3d
       -0.029049084 -0.0066585075 0.027847888 0.032406382
000070 9c 7d f7 bb 21 71 37 bc 57 b1 11 3d 51 0f dc bc
       -0.0075528156 -0.011196406 0.035569515 -0.026862772
000080 5c a7 ae bc b7 f2 cd ba 45 15 97 3c dc 57 96 bc
       -0.021320038 -0.0015712593 0.01844276 -0.018352441
000090 ba 6e a8 3c bc 11 7d 3c 1c ce fd 3c a8 04 11 3d
       0.020560611 0.015446123 0.03098207 0.03540483
0000a0 d5 ba fe bc 2c 29 a4 3c e1 e9 77 3c c5 61 69 3c
       -0.031094948 0.020039164 0.015131445 0.0142445015
0000b0 13 52 50 bb 87 1f bb 3c 4a 6b e6 3a c5 7d 54 3c
       -0.0031787201 0.022842182 0.0017579582 0.012969439
0000c0 8e 85 f1 bc 03 3e d7 3c 8a 2d f4 3b b7 5a 05 bd
       -0.02948263 0.026274687 0.0074517177 -0.032557216
0000d0 ce 4b 76 3c 0c cd e3 bc 2e 23 25 bc f1 91 b1 bc
       0.015032722 -0.027807735 -0.010079188 -0.021676036
0000e0 4c c8 99 bc 5c b5 59 bc 66 71 11 bd 23 78 f1 bc
       -0.018772267 -0.013287868 -0.035508536 -0.029476231
0000f0 85 7e 1c bc 90 65 04 bd 38 54 fc 3c b7 8d 24 38
       -0.009551649 -0.03232342 0.030801877 3.923263e-05
000100 45 64 e8 bc 33 61 35 3c d3 46 12 3d b3 b7 eb bc
       -0.028368125 0.011070537 0.035712074 -0.028774118
000110 1e 61 fa 3c 91 19 b1 bc 2e aa c3 3b 1c a2 47 3c
       0.030563887 -0.021618636 0.0059712147 0.012184646
000120 ea 35 96 bc 85 5b 47 bc 93 d4 20 bb d5 4f fb 3c
       -0.018336255 -0.012167816 -0.0024540767 0.030677715
000130 4a 3e ee 39 c5 a0 c7 3c 20 45 9f 3c 4a e3 ac 3c
       0.00045441306 0.024368653 0.019442141 0.021104474
000140 1c 0f ed bc bc 07 6f 3c f5 81 fa bc 6e ad 50 bb
       -0.028937869 0.014589246 -0.030579546 -0.0031841653
000150 3c e7 8e 3c 6a 68 86 bc ac 66 0b 3d ea 3d 1e 3c
       0.017444246 -0.01640721 0.034033462 0.009658316
000160 01 36 db ba 93 6b d9 3c bc be 1c 3c 45 e9 93 3c
       -0.0016724468 0.026540553 0.009566959 0.018055568
000170 9c 18 86 bc 13 d3 78 3b 70 9b 8e bc 0a 6b a1 3b
       -0.016369157 0.0037967607 -0.017408103 0.00492609
000180 21 a6 e8 bc 8e e7 f1 3c d7 90 92 bc 75 c1 f9 3c
       -0.028399529 0.02952936 -0.01789133 0.030487755
000190 04 44 12 bd 25 cc 94 bc 77 67 a5 bb 6a da dc bc
       -0.035709396 -0.01816375 -0.0050477344 -0.026959617
0001a0 83 cd 9a 3c 4e 0c a7 bc c5 6a c6 bc 5c d5 c9 3c
       0.018896824 -0.02039161 -0.024220834 0.02463787
0001b0 bd 3f 0c 3d dc 3a 89 ba 65 f9 99 bb de 9c c4 bc
       0.034240473 -0.0010469812 -0.0046989196 -0.024000581
0001c0 01 bf 48 3b 93 14 08 3b 7c 49 e9 3c b6 67 06 3d
       0.0030631425 0.0020764216 0.028477423 0.03281375
0001d0 8e 88 fc bc d3 34 8d bc 7c 68 5e 3c c5 9c b9 3c
       -0.030826833 -0.017237103 0.013574716 0.022657761
0001e0 f7 5d 9e bb 3c 20 d0 bc 37 9b 8c bb 25 05 0a bd
       -0.004832979 -0.025405996 -0.004290964 -0.033696312
0001f0 45 61 b7 bc 55 1d c0 3c c5 2d fe bc 9c 98 a5 bb
       -0.022385249 0.023451487 -0.031027684 -0.005053593
000200 ac b5 be 3c 6e 75 f5 ba 60 aa 8a bc 3e 0a b7 3c
       0.023279987 -0.0018727013 -0.016926944 0.022343751
000210 dc 02 8d 3a 85 3e f1 3c e5 bc e2 3c c3 1a b4 3c
       0.0010758298 0.029448757 0.027677963 0.021985417
000220 4c cb 96 bc 93 c6 6e ba 23 dd 88 bc 57 62 3b bc
       -0.018407486 -0.00091085694 -0.016707009 -0.01143702
000230 f8 44 07 3d ee 74 ca bb 5c 56 73 3b d3 f3 2b 3c
       0.033024758 -0.00617849 0.0037130332 0.010495144
000240 77 e1 4a 3c a5 b7 1b bb 77 14 ce 3b 70 81 85 3c
       0.012382857 -0.0023760584 0.0062890607 0.016297072
000250 e5 a8 4d 3c 68 5e 0f 3d 3c a5 7a 3c be ee a7 bc
       0.012552475 0.035002142 0.015298184 -0.020499583
000260 8a 84 53 3c 25 7b 31 bc 7f f9 0a bd b5 6d 9b bc
       0.012910018 -0.010832583 -0.033929344 -0.01897321
000270 05 e9 a7 bc ac 51 d9 bc be 4e d6 3c b1 8e ab 3c
       -0.020496855 -0.026528202 0.026160594 0.020942064
000280 f3 38 09 bd 91 db bc bc ca f9 6a bb 3e db 98 3c
       -0.033501577 -0.023053916 -0.0035854452 0.01865923
000290 15 bd b6 bc ae 79 7e 3c 4d 12 12 3d c5 0b 3d 3c
       -0.022306958 0.01553194 0.035661984 0.011538451
0002a0 f7 fa 14 3c c1 b3 5b bc 37 e6 00 bb d3 5e 4c 3c
       0.009093038 -0.013409556 -0.0019668469 0.01247378
0002b0 75 67 94 bc c2 4c 03 bd 46 be 06 3d 5a 5c 04 bd
       -0.018115738 -0.032055624 0.032896303 -0.032314636
0002c0 d5 65 fe 3c 25 ad ab 3c 81 3d 7e 3c 37 6d 82 3c
       0.031054417 0.020956585 0.015517593 0.015921218
0002d0 dc 70 22 bb ae 15 80 bb 75 34 9f 3c 6e ad 03 bb
       -0.0024786508 -0.0039088344 0.019434193 -0.0020092386
0002e0 e0 c4 a0 3c 93 66 f6 ba 78 21 f0 bc c5 42 f9 bc
       0.019625127 -0.001879888 -0.029312834 -0.030427346
0002f0 fc 29 5c 3c ea 6d 97 bc b3 0c 93 3c 1e 53 9a 3c
       0.013437744 -0.018485028 0.017950391 0.018838461
000300 0a ff 68 bc 87 a8 bd 3c 05 57 41 bc 61 a1 de bc
       -0.014220962 0.02315165 -0.011800532 -0.02717656
000310 0e 57 b6 bc 25 a4 6f 3c 45 b5 cb bc d3 a6 fc bb
       -0.022258308 0.014626537 -0.02486671 -0.0077103167
000320 b7 5c d1 3c 93 d9 f3 ba 41 e1 fe bc ee df a9 3b
       0.025556905 -0.0018604271 -0.031113269 0.005184165
000330 be 2c d8 3c 93 c9 d1 bb d1 2e fd 3c 95 d1 d5 bc
       0.026388522 -0.0064022033 0.030906113 -0.026100913
000340 25 91 a2 bc 8a e4 d3 3b f3 f9 fd bc f3 2d 98 bc
       -0.0198446 0.006466453 -0.031002974 -0.018576598
000350 c5 00 5e 3c 24 de 0c 3d 6e 35 91 bc 98 3e 77 3c
       0.013549988 0.034391537 -0.017725673 0.015090607
000360 ae 35 e1 3b dc 8f f8 3a 2a 7b 91 bc bc 1e e3 bc
       0.006872854 0.0018963772 -0.017758925 -0.027724616
000370 c6 de 0a 3d dc 61 e0 bb 03 cc f0 3c 85 6c d3 bc
       0.03390386 -0.0068476032 0.029394155 -0.025808582
000380 fa a3 c2 bc e8 04 07 bd 6e e7 2c 3c 33 82 2e 3c
       -0.02375983 -0.032963663 0.010553224 0.010651159
000390 ee 50 06 bc ac c8 85 bc b7 78 d8 3a 88 50 fe 3c
       -0.008198006 -0.01633104 0.0016515468 0.03104426
0003a0 ee 52 6d 3b dc 46 b2 b9 e5 69 63 3c 38 2f ea 3b
       0.003621276 -0.000340036 0.013880228 0.007146742
0003b0 6e 3b bb 38 fe 44 cc 3c 5e 23 98 bc 93 df 68 3c
       8.9279245e-05 0.024935242 -0.018571552 0.0142134605
0003c0 6e 84 74 bc 61 b7 66 3c 3e 0f be bc 91 30 ff 3c
       -0.014924152 0.014081807 -0.023200627 0.031151088
0003d0 a5 03 3d bc 05 c9 18 bc 07 70 83 3c 65 3d a1 bb
       -0.011536513 -0.009325271 0.01604463 -0.004920649
0003e0 00 1b 0f bc 1c c2 9c bc d6 8e 0c bd a5 e2 9f bb
       -0.008734465 -0.019135527 -0.034315906 -0.004879313
0003f0 83 ed dd 3c 1c 84 ac bb be f2 d5 3c 01 62 53 3c
       0.027090793 -0.005264772 0.026116725 0.012901784

encoder.0.bias f4 [64]
000000 e5 d1 7f bc 16 47 00 3d 05 80 dd 3c 1a c9 ee 3c
       -0.015614008 0.031317793 0.027038584 0.029148627
000010 ce 6b cb 3c 2c 7b 84 3c 8a 3a d8 3c 4e bd d0 3c
       0.024831679 0.016172014 0.026395101 0.025480893
000020 bf b4 02 3d 53 ce 49 3c 00 ea 20 3c 77 52 ab 3c
       0.031910654 0.012317258 0.009821415 0.020913346
000030 90 77 99 3c 80 91 aa 3b 38 3e fc bb bc 49 61 3c
       0.01873377 0.0052053332 -0.0076978467 0.01375049
000040 a7 50 0b bd 5c b4 ba bb e3 4c 84 3c 73 6b 90 bc
       -0.034012463 -0.00569777 0.016149944 -0.01762936
000050 5a 73 c1 3c 13 c3 68 bc e0 35 16 bc 81 27 b3 3b
       0.023614574 -0.014206666 -0.009168118 0.0054673557
000060 65 d9 fa 3b e5 90 c1 bc 9c 53 91 3b 25 63 32 bc
       0.00765531 -0.023628661 0.004435016 -0.010887896
000070 37 2a 36 3c b7 34 12 bc 35 95 84 3c 65 2b f1 3b
       0.011118463 -0.008923701 0.016184429 0.0073599094
000080 9e 5c fc bc c1 50 bc bb c7 22 9c 3c 37 98 a6 3c
       -0.030805882 -0.0057469313 0.019059552 0.020336254
000090 5c 1d ff bb ca 97 a6 bc aa d9 5a 3c b8 2f 64 ba
       -0.0077854823 -0.02033605 0.013357559 -0.00087046204
0000a0 9c 60 4a bc 6c 8f b7 3c b7 05 55 3b 8a 6c b5 3c
       -0.012352135 0.022407256 0.0032504627 0.022146482
0000b0 a5 f5 b7 3b dc 85 71 bc 13 f1 2a bc c5 3c 02 3c
       0.005614 -0.014741387 -0.010433453 0.007949059
0000c0 95 aa f1 3c 04 8a 07 3d 77 47 57 bc 2a a1 09 3c
       0.029500285 0.033090606 -0.013139597 0.008400241
0000d0 77 85 d6 3c 05 d8 0d bc fa d6 04 3d 5a dc 9d bc
       0.026186688 -0.00865746 0.03243158 -0.01927011
0000e0 07 63 8d 3c 00 d4 18 bb 95 e9 b1 bc 00 11 26 3c
       0.017259134 -0.0023319721 -0.021717826 0.010135889
0000f0 0e 77 fc 3c 8e 77 c4 3c 53 36 ae bc 7c a8 21 3c
       0.030818488 0.02398279 -0.021266138 0.00986683

encoder.2.weight f4 [3, 64]
000000 b8 bf 32 bd a0 26 f7 bb be 86 ea bd 5e da f7 3d
       -0.04363987 -0.0075424463 -0.11451481 0.12102197
000010 20 03 c6 bd b0 23 fb bd 78 6d 55 bd 80 ad 5e 3c
       -0.09668565 -0.12262666 -0.05210635 0.01359117
000020 be d4 c5 3d 8c 36 67 3d 16 62 9b 3d 68 4a 72 3d
       0.09659718 0.056448504 0.07587068 0.05915299
000030 62 21 b3 bd a0 e8 2a 3d 1c b6 22 bd 48 68 16 bd
       -0.08746602 0.041725755 -0.039724454 -0.036720544
000040 7c bd 14 3d 64 9f 8a 3d f0 5a 31 3d a0 0b c5 bc
       0.03631352 0.067686826 0.043299615 -0.024053395
000050 bc b2 4c bd 92 d5 e2 bd a8 dc a3 3d e8 51 49 3d
       -0.049975142 -0.110758916 0.08001071 0.049150378
000060 00 fa 12 3b f0 5e eb 3c 1a 45 9e bd 92 ea d6 3d
       0.0022426844 0.028731793 -0.07728024 0.104939595
000070 dc e0 96 bd 7c 5e 0c bd fa 35 e5 bd a0 a5 97 bb
       -0.07367107 -0.034269795 -0.11191936 -0.0046278983
000080 80 1b e2 bb e2 10 ab bd 34 71 32 3d 0a 76 8b 3d
       -0.006900251 -0.083528295 0.04356499 0.068096235
000090 68 78 9d bc 86 56 b6 bd da 3d 83 3d 58 21 e9 3c
       -0.019222453 -0.08903222 0.064082816 0.028458282
0000a0 00 29 31 ba ac 84 1f 3d 94 3d ca bd 44 e8 f0 3d
       -0.00067581236 0.038944885 -0.09875026 0.11763051
0000b0 60 0f 2b bd a0 6e 82 bb 60 ad c3 bb 00 12 f4 3a
       -0.04176271 -0.0039804727 -0.0059715956 0.0018621087
0000c0 28 76 5b 3d 64 94 99 bd f2 00 f0 bd 7c 5a 7b 3d
       0.05357948 -0.074990064 -0.1171893 0.06136559
0000d0 c8 42 b1 3d b0 47 d2 bd 0e 30 ea bd 96 b4 f0 bd
       0.08655316 -0.102675796 -0.11434947 -0.11753194
0000e0 c0 7e ec bc 60 76 89 bc 5c e1 24 3d e0 b6 81 3b
       -0.028869033 -0.016780078 0.040253982 0.003958568
0000f0 9c e7 7d 3d b8 50 f7 bc 78 a5 8b 3d 28 0c 9a bd
       0.061988458 -0.030189857 0.0681867 -0.0752185
000100 e4 cd 8b bd c4 20 4f 3d 3c 13 99 3d 4c 64 6f 3d
       -0.0682638 0.050568357 0.07474372 0.05844526
000110 d0 03 5e bc ac 40 63 bd 1c 4e 89 3d a4 fa 5a 3d
       -0.013550714 -0.055481598 0.06704351 0.053461686
000120 f0 f2 69 3c 02 30 f8 bd d4 cd bc 3d ae 1d e2 bd
       0.014279112 -0.12118532 0.09218946 -0.11040817
000130 80 13 f5 bd c8 3f 21 3d 20 17 c2 bc 48 65 db 3c
       -0.1196661 0.039367467 -0.023692667 0.026781693
000140 b8 6a bc bc b0 62 e1 3c a4 be 6e 3d d0 c9 e3 bc
       -0.023000106 0.027512878 0.058287278 -0.027806193
000150 c8 99 ab 3d a4 ae 70 bd 40 78 7c bb 8e 03 82 3d
       0.08378941 -0.0587603 -0.0038523823 0.06348334
000160 a0 b9 cd bc a8 3d 3d bd c0 52 5e 3b b2 88 e3 3d
       -0.025112927 -0.046201378 0.0033923835 0.11110057
000170 62 da a2 bd 00 2e ef 3c 80 57 da bb c8 5a 23 3d
       -0.079518095 0.02919674 -0.006663263 0.039881498
000180 ac 7b 04 3d ec 69 09 bd 66 5a d5 bd 0e 72 ee bd
       0.032344505 -0.03354828 -0.10417633 -0.11642848
000190 d2 3d cc 3d 1e ec cf 3d f6 dd db 3d 6c 6e a2 3d
       0.09972729 0.10152458 0.10735695 0.079312176
0001a0 62 c7 dc bd 3a 2b 97 3d 88 99 9f 3c 8c bf 87 3d
       -0.10780217 0.07381292 0.01948239 0.066283315
0001b0 f0 8e 69 bd e8 d5 63 3d 7a 72 f6 3d b2 77 88 3d
       -0.05702108 0.05562392 0.120335534 0.06663455
0001c0 b8 19 73 bd 10 3a 06 3d d8 78 a0 3c bc 75 59 bd
       -0.0593507 0.032770216 0.019588873 -0.053090796
0001d0 e2 d0 fb bd a8 04 bd 3d 72 5f b5 bd e4 6a b7 3d
       -0.122957006 0.09229404 -0.088560954 0.08955935
0001e0 0a fb 92 3d 88 43 d9 bc 80 96 98 ba 82 e3 f4 bd
       0.07176788 -0.02652146 -0.0011641532 -0.11957456
0001f0 d8 11 d1 bd ec df 61 3d 00 c6 e6 bd bc 36 9c bd
       -0.102084816 0.05514519 -0.11268234 -0.07627627
000200 90 15 61 bc 70 df f4 bd 48 bd 53 3d a0 8c 60 3c
       -0.013738051 -0.1195668 0.051694185 0.013705403
000210 80 10 73 bd 88 4b 8d bd f0 32 d8 3d 00 38 97 b9
       -0.059341908 -0.06899172 0.105565906 -0.00028842688
000220 7c bb 0b bd 78 ad a3 bc 70 b2 bb 3c fe 7a e3 bd
       -0.034114346 -0.019980177 0.022912234 -0.11107443
000230 f2 e8 eb 3d 24 7f 1f 3d 36 5c 95 3d b0 8f 33 3c
       0.1151904 0.03893961 0.072929785 0.010959551
000240 80 74 aa bd 68 65 3d bd 28 40 b9 bc 14 9a 90 bd
       -0.08323002 -0.046239287 -0.0226136 -0.07060638
000250 60 c3 c6 bd 64 2c e7 bd 20 5b b9 bd f4 28 13 bd
       -0.097052336 -0.11287764 -0.09050584 -0.035927728
000260 3e 21 b2 bd 1c a8 cd bd 72 37 b1 bd 26 48 9d bd
       -0.08697747 -0.1004183 -0.086531535 -0.07679777
000270 00 09 f7 3d 90 5a 45 3d 60 9d f4 3d e4 aa c9 3d
       0.120622635 0.04818207 0.119440794 0.09847048
000280 fe 39 d3 bd 7c b8 8c bd 70 bb 91 3d 3e d4 94 3d
       -0.103137955 -0.06871125 0.07115829 0.072670445
000290 24 f3 e3 bd 48 ea f5 bc 66 fc e0 3d 28 53 70 bd
       -0.1113036 -0.03001894 0.10985641 -0.058673054
0002a0 d8 19 8b bc 02 52 8b 3d ba 6b c0 3d 70 12 5e 3d
       -0.016980097 0.06802751 0.09395547 0.054216802
0002b0 c4 9b 32 bd 1c 37 06 bd b4 8e 64 3d da b3 87 3d
       -0.04360558 -0.0327674 0.055800155 0.06626101
0002c0 76 9b 96 bd 44 c1 39 bd 54 35 3e 3d 7c 58 1b 3d
       -0.073538706 -0.045350328 0.046437576 0.037926182
0002d0 24 84 b8 3d 08 ae 2b bd e8 8c 17 bd 56 fd b0 3d
       0.09009579 -0.041914016 -0.036999613 0.0864207
0002e0 0e f4 bc 3d a8 f2 b0 3c cc d8 df 3d bc 54 61 3d
       0.09226237 0.021600083 0.109300226 0.05501245
0002f0 a8 c5 2f 3d 7e 4b f0 3d 1a e0 b5 3d d4 ec b0 3d
       0.04291311 0.11733149 0.088806346 0.086389214

encoder.2.bias f4 [3]
000000 92 66 fc bd 78 a0 a9 3d 64 f1 6b 3d
       -0.12324251 0.0828256 0.057603255

decoder.0.weight f4 [64, 3]
000000 7f 88 a4 3e 12 0b 29 3d 1d 1d c2 bd 49 94 11 bf
       0.32135388 0.041270323 -0.09478209 -0.5686689
000010 ba 76 12 bf b7 16 d9 3e e9 b8 0d bf be b6 0b bf
       -0.5721241 0.42400143 -0.55360276 -0.5457572
000020 0e 6d 22 3e cd 66 2a be 7d b0 47 3e 40 50 7b 3e
       0.15861914 -0.16640778 0.19500919 0.24542332
000030 0d de d1 be e8 a2 b8 3d 34 d3 11 bf 2f ec b2 3e
       -0.40989724 0.09015447 -0.56962895 0.3494582
000040 0f ec 0f 3e 89 40 7b 3e 27 3c 08 bf 0c 02 09 bf
       0.14054893 0.24536337 -0.53216785 -0.5351875
000050 06 ef 03 3f 4b bc 52 be bd bd d2 bd 7d 6b f4 be
       0.51536596 -0.2057964 -0.10290096 -0.47738257
000060 6a 72 8d 3e 9a 77 af 3e d0 33 10 3e d1 ee 0b 3e
       0.27626354 0.34270936 0.14082265 0.1366532
000070 a4 60 54 3e 02 51 f8 3c 8f 19 0b 3f 48 72 da be
       0.2073999 0.030312065 0.54335874 -0.42665315
000080 22 99 ef 3e 05 f0 9b 3c 19 1b 11 bf 64 4e e0 bc
       0.4679652 0.019035349 -0.5668197 -0.02738113
000090 a7 0a 8b bc 29 c3 ef be 91 a9 89 bd cb 58 ed 3e
       -0.016972853 -0.46828583 -0.06721795 0.46356806
0000a0 a7 c4 a5 3e a8 91 fd bd 8e d3 25 bd 3d f2 9e be
       0.32376596 -0.12381297 -0.040484957 -0.31044188
0000b0 98 87 c5 3e d3 00 f4 3d b7 cc 8b bd 52 a9 aa 3e
       0.38580012 0.1191422 -0.06826156 0.33332306
0000c0 fa 59 d7 3e 1d fc bc be e0 b4 f5 be 7a 33 03 be
       0.42060834 -0.36911097 -0.4798956 -0.12812606
0000d0 e6 44 2c 3d be 94 cd be 4e 75 cf 3e f4 ab 3f be
       0.042057894 -0.40152544 0.40519184 -0.18717939
0000e0 bd 0b d9 3e 54 50 f7 be 52 21 60 3e 7e 61 f4 be
       0.42391768 -0.48303473 0.2188771 -0.4773063
0000f0 ef 6f 7e 3d d9 99 db 3e d2 3c 06 bf 4b e4 ec 3c
       0.062118467 0.42890814 -0.52436554 0.028917452
000100 bd 80 c8 be f9 a1 f1 be a7 98 79 3e 6b 5f 58 3d
       -0.3916072 -0.47193888 0.24374638 0.052825373
000110 6e 3e 85 bb c0 c2 0b bf d3 b3 eb be 31 a3 15 be
       -0.00406628 -0.5459404 -0.46035632 -0.14613034
000120 09 d8 78 be 3d be b3 be 3b 20 bd be f7 dd f2 3e
       -0.24301161 -0.35106078 -0.36938652 0.4743497
000130 77 c9 09 be 46 e8 ac 3e 07 9b a6 bd 6b 59 02 3e
       -0.13455759 0.3377096 -0.08135038 0.12729423
000140 63 24 b6 be a1 f9 dd 3d c3 e5 b6 3e 1a a0 2a 3e
       -0.35574636 0.108386286 0.3572217 0.16662636
000150 7f dc a7 be f9 3a 3e 3e 7f 1c b1 3e 62 a1 2b 3e
       -0.32785413 0.18577184 0.34592053 0.16760781
000160 a5 51 ce be 0b 90 27 bd 0c 22 1b 3d 50 d7 ab bd
       -0.40296665 -0.040908854 0.037874267 -0.08390677
000170 a2 ed e4 be cb 30 e2 3e a7 e6 d9 be 29 b1 8e 3e
       -0.4471255 0.4417785 -0.42558786 0.27869537
000180 48 5f a7 3e 00 d4 d2 bc f1 e5 43 bd 13 5a 97 be
       0.3268988 -0.025735855 -0.04782671 -0.2956091
000190 58 c6 85 be 0f b5 06 3d c5 f2 42 be f5 26 b6 3d
       -0.26127887 0.032887515 -0.19037922 0.08894149
0001a0 32 c7 e4 3e c6 e1 9a be b4 e2 b6 bd 42 1f f2 be
       0.44683224 -0.30250376 -0.08929959 -0.47289473
0001b0 2d 19 04 bf 2b be da be 46 eb c0 be 17 ff 8c be
       -0.51600915 -0.42723212 -0.376795 -0.27538368
0001c0 08 ea d0 3e 4d 2e 07 3d 2f 9b 91 be 7a b9 08 bf
       0.40803552 0.03300314 -0.28438708 -0.53408015
0001d0 8b 4f cf 3e a6 3e 51 be 82 fd 76 be a6 b5 7c be
       0.40490374 -0.20434055 -0.24120143 -0.24678668
0001e0 6f 56 81 be 37 21 0b bf 36 d3 fd 3e b5 28 02 3f
       -0.25261256 -0.54347557 0.49575204 0.50843364
0001f0 46 f8 42 3e 6f 64 08 bf a1 60 c4 be 0c 2e 90 3e
       0.19040021 -0.5327825 -0.38354972 0.2816013
000200 57 dd f8 3e b2 ea a6 3e 14 02 e6 3e 62 3f fd 3c
       0.4860637 0.32600933 0.4492346 0.030914012
000210 20 d4 80 3c 94 26 02 bf 91 9c 10 3d d2 b3 ab be
       0.01572615 -0.50840116 0.035305563 -0.3353563
000220 e6 18 96 3e a3 34 8a 3e 2c 59 0a 3e a8 d1 88 3e
       0.2931587 0.26993284 0.13510579 0.26722455
000230 57 aa f3 3e 7f 3b 0a 3f 81 0c 11 3f ab 1f 9c 3e
       0.47590896 0.53997034 0.56659704 0.3049291
000240 d1 28 aa 3e d3 6a 88 be 6d cf 77 be a0 a0 dd be
       0.33234265 -0.26644 -0.2420022 -0.4328661
000250 39 cb f4 bd ae 74 ff bd 56 6f 0d 3f 29 94 c8 3e
       -0.11952824 -0.12473427 0.5524801 0.39175537
000260 d7 66 ca 3e b1 10 13 3f d5 fa 80 3e 26 38 0b 3f
       0.39531586 0.57447344 0.2519137 0.5438255
000270 5c 2e 10 bf 05 72 0a bf 1b 81 eb be 3d 5a 97 be
       -0.5632074 -0.5408023 -0.45996937 -0.29561034
000280 4b 8e 83 3e 79 18 0e bf 41 bd ff be d7 c4 b0 be
       0.25694498 -0.5550609 -0.49949077 -0.34525177
000290 ed 0a fe 3e 8b 36 cd 3d e5 de 34 3e 89 a3 17 be
       0.4961771 0.10020169 0.17663153 -0.14808477
0002a0 03 31 a2 3c 48 9c 16 3e ec 62 78 be 29 30 86 be
       0.019798761 0.14708054 -0.24256486 -0.26208618
0002b0 15 42 8d 3d aa f9 f6 be a3 55 06 3f 23 0d e4 be
       0.0689737 -0.48237354 0.5247442 -0.44541273
0002c0 91 f2 bc be 95 99 97 3e 1f 10 a7 3e 67 7b 76 3d
       -0.36903813 0.2960936 0.32629487 0.06017628
0002d0 eb 3d 12 3e 52 ad d6 3d a9 89 d4 be 0f a6 ca bd
       0.14281432 0.10482277 -0.41511276 -0.098949544
0002e0 25 68 07 3f 21 2f 4c 3e de 0b 5c 3e cb 18 dd be
       0.52893287 0.19939853 0.21488902 -0.43182978
0002f0 44 6a c6 3e 37 a0 96 3d c7 70 2a be be 99 53 be
       0.3875295 0.07354777 -0.16644584 -0.20664117

decoder.0.bias f4 [64]
000000 6e 82 69 be 82 17 47 3e 40 22 ed 3e d3 72 b4 be
       -0.22803661 0.19442561 0.46315193 -0.35243854
000010 ff 73 04 3e e6 67 10 bf e3 49 13 3f e7 67 49 bd
       0.12934874 -0.56408536 0.5753462 -0.049171355
000020 ba a0 54 3e ce bf a3 3e ef c2 d2 3d 90 c7 01 3f
       0.20764437 0.31982273 0.10291087 0.50695133
000030 90 7a cb bd d2 06 81 bd 48 3e ef 3e 79 83 e4 bd
       -0.09935486 -0.06300129 0.46727204 -0.11157889
000040 f9 c8 a8 be ef 80 91 be bc 93 b7 bb 07 fc c6 3e
       -0.3296583 -0.2841868 -0.005602328 0.38864157
000050 31 98 0f bf 0a c5 9a be ac 8c 85 be 59 b2 99 3d
       -0.560916 -0.30228454 -0.26083887 0.0750472
000060 09 1c c6 bc ab a4 c5 bd 2e f6 f5 bd f8 5d 08 3e
       -0.02418329 -0.096505485 -0.12009846 0.13317096
000070 ae 97 95 3d 8c ac 72 be ec 50 c0 be b0 3f e3 bc
       0.07304321 -0.23698634 -0.37561738 -0.02774033
000080 96 2f 3e 3e cb 98 bf 3b 5d 46 07 bf a3 04 0b bf
       0.1857284 0.0058470718 -0.5284174 -0.5430395
000090 bf 2e bc be b7 00 a6 be 20 46 5c be 82 ed 65 3d
       -0.36754414 -0.3242242 -0.21511126 0.05613471
0000a0 73 c7 e6 3e ea 5a 19 3e 49 7f eb 3e 11 30 9c be
       0.45074043 0.14976087 0.45995548 -0.30505422
0000b0 6c 51 2e bc a8 f1 a2 be d1 2b be be ae 67 0b bf
       -0.01063953 -0.31824994 -0.37142804 -0.5445508
0000c0 ec 01 3e be ad 24 91 bc 57 83 8f be c8 73 35 3e
       -0.1855542 -0.017717684 -0.28029892 0.17719948
0000d0 b6 65 53 be 23 8a 0d bf db 1f c1 3e 19 ca 0f bf
       -0.20644268 -0.55288905 0.37719616 -0.5616775
0000e0 40 92 7b be d8 d9 0f 3f ff 1a c3 be 99 66 8c 3e
       -0.24567509 0.5619178 -0.38106534 0.27422026
0000f0 5e 91 8e 3e fb c7 9a bc 8a 03 91 be d1 37 c2 3c
       0.2784528 -0.018894186 -0.28323013 0.023708256

decoder.2.weight f4 [784, 64]
000000 c0 44 70 bc 40 db 6d 3c fc 05 d1 bd 7e 47 f6 3d
       -0.014664829 0.014517605 -0.102062196 0.12025355
000010 3c b3 21 bd 58 be 30 3d 0c b4 6f 3d 40 24 ae bb
       -0.03947757 0.043150276 0.058521315 -0.00531438
000020 2c f8 80 3d 02 6e bc 3d c4 35 aa bd 22 4d bc 3d
       0.06297335 0.0920067 -0.08311036 0.091943994
000030 0a b5 ff 3d 88 1d ea 3c 94 23 eb bd f4 d3 88 3d
       0.12485702 0.028578535 -0.11481395 0.06681052
000040 98 93 b9 bc 0c 6d 7a bd dc a0 ed 3d 0c 5f 54 3d
       -0.022653386 -0.06113915 0.11602947 0.051848456
000050 78 34 90 3d 78 0b a2 bc 18 f4 b4 bc 0c f2 09 bd
       0.070412576 -0.01978086 -0.02208905 -0.0336781
000060 e0 95 9e 3d ac 76 53 3d aa f5 c4 3d 2c 5e 0c 3d
       0.0774343 0.051626846 0.09617169 0.034269497
000070 a4 b8 5a 3d 34 46 7f bd 40 11 4f bb a0 57 da bc
       0.053398743 -0.06232281 -0.0031595975 -0.026653111
000080 00 79 16 bc 10 28 fb 3c 90 ab 69 bd 40 32 9a bb
       -0.009184122 0.030658752 -0.05704838 -0.0047056973
000090 b0 cf c5 bc 66 92 be bd 00 63 2b bc a0 66 d0 bb
       -0.024146885 -0.09305267 -0.010460615 -0.00635989
0000a0 12 66 d7 bd e0 b6 62 bc 2e e7 bd 3d 64 0d 64 3d
       -0.10517515 -0.013837546 0.0927261 0.055676833
0000b0 f8 fe fe bd 84 67 79 bd e6 93 cf 3d 5c 62 d1 3d
       -0.12450975 -0.060889736 0.10135631 0.10223839
0000c0 18 2e f6 3d b8 a9 21 3d 5a 37 cc bd 1c 31 0c bd
       0.120205104 0.039468497 -0.09971495 -0.03422652
0000d0 08 20 8f 3d ec d8 1e 3d 00 19 8c 3c a8 2a ee bd
       0.06988531 0.03878109 0.017101765 -0.1162923
0000e0 da 35 9a 3d 58 cf 4b bd 50 38 d3 bc 3c 00 08 bd
       0.075298026 -0.049758285 -0.025783688 -0.03320335
0000f0 ee 86 fd 3d 74 8b 5b bd bc bf 05 3d cc b8 ae 3d
       0.123792514 -0.05359979 0.032653555 0.08531341
000100 f8 5d d2 bc a0 bf 0c 3d 48 a8 5a bd 60 11 53 3c
       -0.025679573 0.034362435 -0.05338314 0.0128825605
000110 ae ea 95 3d c2 59 85 bd 00 4c 4b bc c4 f5 df bd
       0.07320152 -0.065112606 -0.0124082565 -0.10935548
000120 2c 12 e8 bd 10 07 fd 3c 80 ad 69 3b 5c 57 79 3d
       -0.11331591 0.030887157 0.0035656393 0.060874328
000130 10 f0 d3 3d b0 76 d6 3c 5c 18 78 bd 40 c2 ef bb
       0.10348523 0.026179641 -0.060570106 -0.0073168576
000140 da a8 88 bd bc fa 60 bd 96 72 ec bd fe f1 e7 3d
       -0.06672831 -0.05492662 -0.11545293 0.11325453
000150 f2 55 c1 bd aa 4d b6 bd 68 36 e3 bc 70 09 2a bd
       -0.09440221 -0.08901532 -0.027735904 -0.041512907
000160 96 20 de bd 42 eb c1 bd e0 fc b3 3c 8e d3 ef 3d
       -0.10846059 -0.094687 0.021971166 0.11710273
000170 78 6b 39 bd 50 a8 50 bd 7e d6 cb 3d 60 b6 c0 3c
       -0.045268506 -0.050941765 0.099530205 0.023524463
000180 e4 7d 3b 3d 04 46 12 bd f0 d6 ca 3c 28 aa d3 bc
       0.045774356 -0.035711303 0.024760693 -0.025837973
000190 da ed f9 bd 04 af 51 bd 34 34 12 bd 8c 18 16 bd
       -0.1220357 -0.0511923 -0.035694316 -0.036644503
0001a0 6e ad c6 bd a2 6c bf 3d 28 74 87 bc 08 b1 76 3d
       -0.09701048 0.09346892 -0.01653488 0.060227424
0001b0 0c 13 3a 3d 18 38 53 3d 88 51 be bd 80 83 8b bd
       0.04542832 0.051567167 -0.092928946 -0.06812191
0001c0 8c 1b 12 3d 74 56 8f bd 88 55 7a bd 40 74 a5 3b
       0.035670802 -0.069989115 -0.061116725 0.0050492585
0001d0 76 55 bc 3d fe 01 bc bd 52 f8 fb 3d ec e1 2e bd
       0.09195988 -0.091800675 0.12303223 -0.042695925
0001e0 d0 c5 a8 bc 74 30 d0 3d 30 24 37 3c 40 4f 83 bd
       -0.020602137 0.10165492 0.011178061 -0.064116
0001f0 18 b6 d5 bd ca 9b a5 bd fc 4c 03 3d a4 15 a0 3d
       -0.10435122 -0.08086355 0.03205584 0.078166276
000200 bc be 8b bd 66 e4 db 3d e0 d6 50 3d 9e 44 d7 bd
       -0.06823489 0.10736923 0.05098617 -0.105111346
000210 00 f8 e2 3d 5c 93 98 3d 5c 66 80 bd 36 6a c2 bd
       0.110824585 0.074499816 -0.062695235 -0.094929144
000220 62 0c b1 3d 7e 9b 8a bd 50 24 bb bd dc 3f c1 3d
       0.0864494 -0.06767939 -0.091377854 0.09436008
000230 98 be ae 3d 04 d9 58 bd 36 a5 e9 3d 92 f3 b9 bd
       0.085324466 -0.052941337 0.114084646 -0.090796605
000240 1c 60 f6 3d c8 be f1 3d 76 db e4 bd 10 4d e6 bc
       0.1203005 0.11803967 -0.11174671 -0.028112918
000250 f0 ce 36 3d b8 64 bc bc 98 c7 65 3d 00 c9 b6 3c
       0.044630945 -0.022997245 0.05609855 0.022312641
000260 54 1c b6 bd c6 b5 d7 3d c4 6d d9 bd f6 84 80 bd
       -0.08892122 0.105327174 -0.10616639 -0.0627536
000270 1c e9 13 3d b4 20 4e 3d e4 92 ab 3d d8 2e 9c 3d
       0.036110982 0.050324157 0.083776265 0.07626122
000280 e2 28 85 bd 1e 4d 8f bd ba a9 d9 3d fc fc de bd
       -0.065019384 -0.06997131 0.10628076 -0.10888097
000290 dc da 81 3d de 54 8f 3d e2 f0 de 3d 3e f4 e5 3d
       0.06340572 0.06998609 0.108857885 0.11228226
0002a0 28 7b f4 bc 38 0e 52 bd 18 cc a1 3d 98 19 c3 bd
       -0.029843882 -0.05128309 0.07900256 -0.09526366
0002b0 78 50 26 3d e6 cf ff bd 5e 05 85 bd 8c 73 fb bd
       0.040604085 -0.12490825 -0.06495164 -0.12277898
0002c0 60 29 98 3c 6a f4 d6 3d ca 3d 97 3d 80 8b 69 3b
       0.018574417 0.10495837 0.07384832 0.0035636127
0002d0 60 5a 1c bd 78 1b 6c 3d 08 d2 44 3d 22 c0 fe 3d
       -0.038172126 0.057643384 0.048051864 0.1243899
0002e0 4a 2e b2 3d d0 30 4c bc ac 4f 84 bd 4a ae 93 3d
       0.08700235 -0.01246281 -0.06460509 0.072109774
0002f0 80 10 25 bb a6 64 a4 3d cc a7 dd bd f0 e4 c6 bd
       -0.0025186837 0.0802701 -0.1082302 -0.09711635
000300 80 24 fa 3c 16 20 f2 bd 8a 08 cd bd 50 db fb 3c
       0.030534983 -0.11822526 -0.10011394 0.030744225
000310 d8 17 ad bc 6c 36 db 3d 30 1f 94 bc 00 dc 2c 3c
       -0.021129534 0.107037395 -0.018081278 0.010550499
000320 30 fc c7 bc 68 35 a4 3c c0 43 23 3d 00 af d5 bc
       -0.024412245 0.020044997 0.039859533 -0.026084423
000330 82 d2 d6 3d f8 d3 79 bd 98 38 d2 bd b0 c4 41 3d
       0.1048937 -0.060993165 -0.10264701 0.047306716
000340 f4 e1 b1 bd d2 39 9e bd d6 c6 a5 3d b0 21 0d 3d
       -0.08685675 -0.07725872 0.080945656 0.034455955
000350 94 fa 98 3d f4 d4 3f bd fa 9b f8 bd d4 45 b6 bd
       0.07469669 -0.046833947 -0.12139125 -0.089000374
000360 3c 61 d5 bd b0 79 24 bd aa 31 af 3d 9e 9f b4 bd
       -0.104189366 -0.040155113 0.085543945 -0.08819507
000370 c4 65 3a bd c0 5e 80 bc 8a 49 d3 3d 34 fc 05 bd
       -0.045507208 -0.01567018 0.10316761 -0.032711223
000380 c0 3d d8 3d a4 5c 65 bd 40 24 78 bd 56 0a 87 3d
       0.10558653 -0.055996552 -0.060581446 0.06593768
000390 ac 41 50 3d 80 cc 7b bd 98 3d b8 3c 76 f3 a1 3d
       0.05084388 -0.061474323 0.022490308 0.079077646
0003a0 da 2f ec 3d 48 ef 63 3d 90 9d 33 3d f8 79 32 bd
       0.115325645 0.05564812 0.043851435 -0.04357335
0003b0 4c 15 86 3d e8 12 cd bc 70 23 4d 3d 48 a2 86 3c
       0.06547031 -0.02503343 0.050082624 0.016434804
0003c0 56 06 96 3d f0 15 2a 3d 90 cc b7 bc 5e 92 95 bd
       0.07325427 0.041524827 -0.02243641 -0.07303308
0003d0 a4 e9 9a bd ec a7 80 bd a4 30 03 bd d4 f3 91 bd
       -0.07564095 -0.062820286 -0.03202881 -0.07126585
0003e0 e2 f5 d6 3d 78 04 9b 3c 26 d9 da 3d ac 42 93 3d
       0.10496117 0.01892303 0.10685949 0.07190451
0003f0 00 b1 b2 3d e4 08 49 3d 30 86 5b 3c 22 b5 9f 3d
       0.08725166 0.049080744 0.013398692 0.0779822

decoder.2.bias f4 [784]
000000 0c b1 9d bd 58 81 f9 3c 18 c2 9b bd 04 e7 18 3d
       -0.07699785 0.030457184 -0.0760538 0.03732969
000010 34 1b 5f bd 56 59 a3 bd d4 40 33 bd c8 07 97 3d
       -0.054469302 -0.07976024 -0.043762997 0.07374531
000020 24 53 99 3d 10 8a 4c bc 10 c4 0d 3d 80 9b c6 3a
       0.07486561 -0.012484089 0.034610808 0.0015152544
000030 f4 a9 67 3d 2c 8b c8 bd 74 dc 85 3d 0c ae c5 3d
       0.056558564 -0.0979217 0.06536189 0.096523374
000040 80 f5 db 3b 08 90 e6 bc b6 4f af bd 48 4c 98 3c
       0.0067126155 -0.028144851 -0.085601255 0.018591061
000050 d2 9a b4 3d 00 ca 2e 3c 70 82 20 bc 18 97 b6 3c
       0.08818592 0.010668278 -0.009796724 0.022288844
000060 96 b1 d9 bd 78 ec 78 bd 30 22 67 bd 20 ce 60 bd
       -0.10629575 -0.06077239 -0.056429088 -0.054884076
000070 5c a1 f4 bd 52 c7 cf bd 9a 9a e2 3d a0 0f b9 3c
       -0.11944839 -0.10145439 0.11064644 0.022590458
000080 24 9c 15 bd d4 76 b7 3d bc 97 63 3d 7c d9 dc bd
       -0.03652586 0.089582115 0.055564627 -0.10783669
000090 28 0d 19 3d f4 29 aa bd 00 ad ea ba a0 d7 74 bc
       0.037366062 -0.08308783 -0.0017904341 -0.014943987
0000a0 90 e8 77 bc 18 92 c9 bd b0 0b 66 bd 00 aa 9c ba
       -0.015131131 -0.09842318 -0.05616349 -0.0011952519
0000b0 48 17 55 3d 82 f4 bc bd 00 f5 0d bd 20 48 0a 3c
       0.052024156 -0.09226324 -0.03465748 0.0084400475
0000c0 4c d2 5d 3d 8c aa 24 3d ee 09 d5 3d d0 7d 36 bd
       0.054155633 0.04020171 0.104022846 -0.044553578
0000d0 7e cd ff bd 80 90 62 3b 70 10 5e 3d e0 e0 b1 bb
       -0.124903664 0.0034570992 0.054214895 -0.0054284185
0000e0 3c e5 ea bd 92 d4 91 bd 08 08 a3 3c 82 1c 93 bd
       -0.11469504 -0.07120623 0.01990129 -0.07183172
0000f0 90 3b 04 3d 14 32 f6 3d 38 31 b3 bd b0 cc 50 bd
       0.032283366 0.120212704 -0.08749622 -0.050976455
000100 f8 f3 cf bc 5c 52 a8 bd d0 c9 60 bc e4 a3 ae bd
       -0.025384888 -0.08218834 -0.013719991 -0.085273534
000110 b0 41 82 bc f0 9a 1b bd 2c 42 09 bd 1a 3b c4 3d
       -0.015900463 -0.037989557 -0.033510372 0.09581585
000120 30 c4 20 bc a0 9f 7e 3d 72 8e 8d 3d c4 fa fc bd
       -0.0098124 0.06216395 0.06911935 -0.12352517
000130 d2 29 fe bd 18 97 37 3d 18 21 34 3d 48 42 93 3c
       -0.1241032 0.04482183 0.043976873 0.017975941
000140 40 26 83 bd 0c 55 dd 3d dc b6 85 bd 7c e9 92 bd
       -0.0640378 0.10807237 -0.06529018 -0.0717344
000150 f4 75 a2 bd 10 70 47 3d a0 c8 e0 3d 00 fd 15 3d
       -0.07932654 0.048690856 0.10975766 0.036618233
000160 5c 26 48 bd 24 9c 7a 3d 20 03 3c 3c c4 7c 9e 3d
       -0.048864707 0.061184064 0.011475354 0.07738641
000170 30 b2 15 3d 8c a4 d9 bd 00 33 8e bc d0 8d 4e 3d
       0.036546886 -0.10627088 -0.017358303 0.05042821
000180 60 05 cf bb 74 2e 99 3d 08 1b 7e 3d 30 b3 be 3c
       -0.0063177794 0.07479563 0.062037498 0.023278803
000190 1c cc b1 bd 4e 9f ee bd f0 3c 68 3d da 75 ee bd
       -0.08681509 -0.11651479 0.05669874 -0.11643572
0001a0 60 f8 47 bc e0 c2 94 bb 62 9a d0 3d 04 f9 99 bd
       -0.012205213 -0.0045398325 0.10185696 -0.07518199
0001b0 24 9f 60 bd 58 90 ee bc 40 dd 36 3c 80 8a e2 3b
       -0.05483927 -0.029121563 0.011161149 0.006913483
0001c0 88 a8 c4 bc f0 2b 24 3d c0 1d ed bb 38 1b 4c bd
       -0.024006143 0.040080965 -0.0072362125 -0.049830645
0001d0 ae 2f db bd c4 1f 74 3d 10 e3 05 3d 48 14 f1 3c
       -0.107024536 0.059600607 0.032687247 0.029428616
0001e0 5c 5f 13 bd 92 6f b0 3d 22 a2 d4 bd 3a 22 8f bd
       -0.035979614 0.0861503 -0.10382487 -0.0698895
0001f0 74 04 cb 3d f0 3d fd bc 20 56 d1 3b 1c 90 c3 bd
       0.09912959 -0.030913323 0.0063884407 -0.09548971
000200 9c 6a 1d 3d 28 5c 09 bd 90 fe 94 bd 60 d5 81 3b
       0.03843175 -0.033535153 -0.072751164 0.003962204
000210 e2 86 ab 3d 30 72 c3 bd 74 ce 34 3d a0 08 64 bc
       0.08375336 -0.09543264 0.0441422 -0.013918072
000220 bc bf 3a 3d 00 20 38 bc 00 0c 2a 3c 70 03 ff bc
       0.04559301 -0.011238098 0.010378838 -0.031129569
000230 a6 d3 ca 3d 10 cb d9 bd bc 15 91 bd ba 8a c4 3d
       0.0990365 -0.10634434 -0.07084224 0.095967725
000240 72 31 b0 3d ec 6d cd bd 98 9f 7b bd 40 6c cd 3c
       0.08603181 -0.100307316 -0.061431497 0.025076032
000250 06 50 de bd 7e 08 e6 bd 80 d0 d4 3d 80 00 a1 3c
       -0.10855107 -0.112320885 0.10391331 0.019653559
000260 2c 07 32 3d 10 54 59 3c 9e 2b 9d 3d 90 b8 4e 3d
       0.04346387 0.013264671 0.07674335 0.05046898
000270 78 fc 43 bd 64 54 e3 3d 8c 07 ae bd 6a 9d f0 3d
       -0.047848195 0.111000806 -0.08497533 0.11748774
000280 6e 74 c4 bd 00 e9 26 3b 46 fa d7 3d e0 58 c1 3c
       -0.0959252 0.0025468469 0.10545783 0.02360195
000290 ec 56 ae 3d fc 3a af 3d c8 b6 a8 bd 60 71 fb bb
       0.08512673 0.08556172 -0.08237988 -0.0076734275
0002a0 70 1f c6 bd d4 ef 60 bd 20 71 df bd 96 ca cd 3d
       -0.09673965 -0.054916218 -0.10910249 0.10048406
0002b0 a4 ef 08 bd 9e b3 f9 bd 58 33 4e bd 2a 59 c0 bd
       -0.033431664 -0.121924624 -0.050341934 -0.09392007
0002c0 18 30 c1 bc c8 5d 65 bd d2 63 c8 bd 2c b6 6d 3d
       -0.023582503 -0.05599764 -0.09784664 0.05803506
0002d0 3e 54 85 bd 68 bf 4d 3d b0 02 66 3c 34 e4 9d bd
       -0.065102085 0.050231367 0.014038727 -0.07709542
0002e0 50 9d a8 bc 7c e3 c2 3d b2 db b3 3d b0 e5 73 bd
       -0.020582825 0.095160455 0.08782138 -0.05954522
0002f0 80 70 3d bc 64 2a e7 bd 80 e8 74 3d 7a 1a de bd
       -0.011562467 -0.11287382 0.05979204 -0.10844894
000300 58 41 ed bd 98 6d ec bc a2 2d 99 bd 58 3e e3 bc
       -0.11584729 -0.028860852 -0.07479407 -0.027739689
000310 a4 c8 9a bd 18 a0 9e bc a0 74 b1 bc 2a 58 fc 3d
       -0.075578004 -0.019363448 -0.021662056 0.123215035
000320 90 a4 e0 3d 90 05 53 bd b2 35 9d 3d 24 de ee bd
       0.10968888 -0.051518977 0.07676257 -0.11663464
000330 d6 80 a1 bd 0c d0 d9 3d d8 77 ff 3d 9a 6e b8 3d
       -0.07885902 0.10635385 0.1247403 0.090054706
000340 bc c5 d1 bd 88 9e db bc 98 1f cd 3c 72 f7 a8 3d
       -0.10242793 -0.026808992 0.02503948 0.082503214
000350 10 63 a3 bc 1c b0 c6 bd ce 4f bd bd f0 62 c9 bd
       -0.019944698 -0.09701559 -0.09243737 -0.09833324
000360 32 a1 eb bd 02 54 b6 bd 04 15 51 bd a2 92 93 bd
       -0.11505355 -0.08902742 -0.051045433 -0.07205702
000370 b4 9e 52 bd 4c 85 f5 bd 54 19 86 3d b8 1f bc 3c
       -0.051420882 -0.11988315 0.065478 0.022964343
000380 38 d1 7d 3d 3c 5a d5 3d e2 ef ea bd 52 a7 a3 3d
       0.061967105 0.104176015 -0.11471535 0.07990898
000390 f0 e3 16 3c e0 40 10 bd fa 09 f0 bd 40 ba dc 3b
       0.009209618 -0.03521812 -0.11720653 0.00673607
0003a0 2c c0 c3 3d 5e 7c c5 3d 30 44 55 bd c8 a5 27 3d
       0.09558138 0.09642862 -0.05206698 0.040929586
0003b0 f8 b6 c9 bc 50 38 83 3c e8 61 ad bd d0 77 90 bc
       -0.02462338 0.016018063 -0.0846594 -0.017635256
0003c0 c0 65 75 bd 50 91 8b bc a6 c1 ff 3d 48 db bb bd
       -0.05991149 -0.017037064 0.124881074 -0.09172684
0003d0 78 cf f5 3d 74 2d b2 3d 24 93 99 bd be 5e b5 bd
       0.12002462 0.08700076 -0.07498768 -0.08855961
0003e0 ae a1 fe bd 40 73 ae 3b 88 7e 8e 3c e4 d0 9a 3d
       -0.12433182 0.0053237975 0.01739432 0.07559374
0003f0 10 08 f3 3c 30 92 9f 3d f6 f9 a5 bd 00 a1 81 3c
       0.02966693 0.07791555 -0.08104317 0.015823841
